backend/recsys_models/lkpp_model/pinsage_model_lkpp.npz (npz, 441201 bytes, 2 tensors)

user_embed f4 [6652, 16]
0	0x3fcddee8	1.608365
1	0x3e28d480	0.16487312
2	0xbf3bdf98	-0.7338805
3	0x3fd2ae3a	1.645942
4	0x3daa270c	0.08308229
5	0xbebde248	-0.370867
6	0xbf419550	-0.7561846
7	0xbdbf7f9c	-0.093505114
8	0x3ee88930	0.45417166
9	0x3fa341e0	1.2754478
10	0x3f5a4cca	0.8527342
11	0x3f9feda9	1.2494403
12	0xbedfa710	-0.43682146
13	0x3f32ee6d	0.6989506
14	0x3f7e6046	0.9936565
15	0x3f646da1	0.8922978
16	0x3f9186a3	1.1369213
17	0x3e27e970	0.16397643
18	0xbeff4f6f	-0.4986529
19	0x3f83fe75	1.0312029
20	0xbcef6e98	-0.02922754
21	0xbe4773fd	-0.1947784
22	0xbee95611	-0.45573476
23	0xbd9bccb2	-0.07607402
24	0x3ebb09df	0.3653097
25	0x3f5d56d4	0.86460614
26	0x3f1f432e	0.62211883
27	0x3f471135	0.7776063
28	0xbe12035c	-0.14259094
29	0x3f19d70e	0.6009377
30	0x3f2585c7	0.64657253
31	0x3f11c9c7	0.5694851
32	0x3e9e27d0	0.3088975
33	0x3ce78b6c	0.028264724
34	0xbe188e91	-0.14898135
35	0x3eaae502	0.33377844
36	0x3d008880	0.031380177
37	0xbd95cf9b	-0.07314988
38	0xbe4571b9	-0.19281663
39	0x3cc2924c	0.0237514
40	0x3d8f91d8	0.07010239
41	0x3ea2405d	0.3168973
42	0x3e5a55ca	0.21321788
43	0x3e4f37d7	0.20236145
44	0xbd8b5e60	-0.0680511
45	0x3e0d2a70	0.1378572
46	0x3e5f4f9a	0.2180771
47	0x3e7cb571	0.2467859
48	0x3f209998	0.62734365
49	0x3de90938	0.113787115
50	0xbe79ee44	-0.24407297
51	0x3f24a18a	0.6430899
52	0x3d341766	0.043967627
53	0xbe20e82f	-0.15713571
54	0xbea8dfde	-0.32983297
55	0x3d0b3928	0.033990055
56	0x3e52e5a6	0.20595416
57	0x3f1070c2	0.56422055
58	0x3ebf8eac	0.37413538
59	0x3ee01db8	0.43772674
60	0xbe376903	-0.17911153
61	0x3e8e692a	0.2781461
62	0x3ebf8c5e	0.3741178
63	0x3ed5086c	0.41607988
64	0x3fbb6fc7	1.4643487
65	0x3e63983a	0.22226039
66	0xbf2a36c9	-0.66489846
67	0x3fc89830	1.5671444
68	0xbb1dde80	-0.002408892
69	0xbeadfe24	-0.33982956
70	0xbf32de01	-0.6987
71	0x3d1889e4	0.037240878
72	0x3eb3b961	0.3510237
73	0x3fa8bfbe	1.3183515
74	0x3f6754c1	0.903637
75	0x3f91bd79	1.1385947
76	0xbeb73081	-0.35779193
77	0x3f32fc21	0.6991597
78	0x3f5a4c94	0.852731
79	0x3f70de90	0.94089603
80	0x3f403dec	0.75094485
81	0x3e02b555	0.12764485
82	0xbeb185e4	-0.34672463
83	0x3f521e0a	0.82077086
84	0x3d2b9288	0.04188779
85	0xbe30cbb6	-0.1726521
86	0xbebf6c5e	-0.37387365
87	0x3bd878c8	0.006606195
88	0x3e2fbcd0	0.1716187
89	0x3f2abde1	0.6669598
90	0x3ee8dbe0	0.4548025
91	0x3f17ca7f	0.5929336
92	0xbe60ccec	-0.21953171
93	0x3eaae477	0.3337743
94	0x3ee4f182	0.44715506
95	0x3ef9e140	0.48804665
96	0x3ea00386	0.31252688
97	0x3d66a508	0.05630973
98	0xbe0e42ad	-0.13892622
99	0x3e790d8e	0.24321577
100	0xbc930e1c	-0.017951064
101	0xbca9ccd2	-0.020727549
102	0xbdb300de	-0.087404
103	0xbc059273	-0.008152592
104	0x3e0d8428	0.13819945
105	0x3e451e7a	0.19249907
106	0x3e19dffb	0.15026848
107	0x3e36a29f	0.17835473
108	0x3bc0b39f	0.0058807875
109	0x3e44d551	0.19221999
110	0x3e1db652	0.15401581
111	0x3dca81b6	0.09888022
112	0x3ef08308	0.4697497
113	0x3dcfcd72	0.101466075
114	0xbe339304	-0.17536551
115	0x3ef1447f	0.4712257
116	0x3ddb6a7a	0.10713668
117	0xbdcd9760	-0.10038638
118	0xbeaf1ae5	-0.34200206
119	0xbd187875	-0.03722425
120	0x3db3da78	0.08781904
121	0x3eed609b	0.46362767
122	0x3ea3abb9	0.3196695
123	0x3e76bedd	0.24096246
124	0xbe186781	-0.14883234
125	0x3e531aa6	0.20615634
126	0x3eb34752	0.3501535
127	0x3ec08015	0.3759772
128	0x3f423a00	0.7586975
129	0x3dcf1628	0.10111648
130	0xbeb76a92	-0.35823494
131	0x3f2ef807	0.6834721
132	0x3d053412	0.03252036
133	0xbdda47e8	-0.10658246
134	0xbea6176a	-0.3243974
135	0xbd885f63	-0.066588186
136	0x3e85e9d9	0.26154974
137	0x3f11fc58	0.5702567
138	0x3ed2e478	0.41189933
139	0x3efb87e9	0.4912713
140	0xbdc0fc3e	-0.094231114
141	0x3ec1945c	0.37808502
142	0x3eee8207	0.46583578
143	0x3ec5fe98	0.38670802
144	0x3fdda32c	1.7315421
145	0x3ea83184	0.32850277
146	0xbf45ab6e	-0.77214706
147	0x3ffa60e8	1.9560823
148	0x3ce2a0b8	0.027664527
149	0xbee546e1	-0.4478064
150	0xbf67efab	-0.9060008
151	0x3df77ae9	0.1208399
152	0x3eafb369	0.34316567
153	0x3fd77604	1.683289
154	0x3f944351	1.1583043
155	0x3faf34cb	1.3687986
156	0xbefcee68	-0.4940064
157	0x3f4adc27	0.79242176
158	0x3f808419	1.0040313
159	0x3f9f6f5c	1.2455859
160	0x3fccb92f	1.5994014
161	0x3e6e6fa2	0.23284772
162	0xbf402a1c	-0.75064254
163	0x3fd7c090	1.685564
164	0x3e05154d	0.12996407
165	0xbeaf7f2b	-0.3427671
166	0xbf4953fa	-0.78643763
167	0xbd3dae24	-0.04630865
168	0x3ed5a98d	0.4173092
169	0x3fabc515	1.341952
170	0x3f6988cc	0.9122436
171	0x3f9cc2ee	1.2246988
172	0xbee43fd7	-0.44579956
173	0x3f31ab16	0.6940168
174	0x3f7c8da4	0.98653626
175	0x3f7975a1	0.9744511
176	0x3fb51e19	1.414981
177	0x3e3eee8e	0.18645689
178	0xbf265485	-0.64972717
179	0x3fca2ddd	1.5795246
180	0x3d5206a0	0.05127585
181	0xbebdc34b	-0.3706306
182	0xbf3c84d8	-0.73640203
183	0x3d5f2fd8	0.054488987
184	0x3e98c5e5	0.29838482
185	0x3fa7e0ba	1.3115456
186	0x3f6053d0	0.8762789
187	0x3f91664b	1.1359342
188	0xbed728a6	-0.420232
189	0x3f2060bd	0.6264761
190	0x3f5cb320	0.86210823
191	0x3f771a48	0.96524477
192	0x3ff35495	1.9010187
193	0x3e8b5a95	0.27217546
194	0xbf548336	-0.8301271
195	0x3ffaad02	1.9584048
196	0x3d54f598	0.05199203
197	0xbeeac6fc	-0.45854938
198	0xbf6beb38	-0.9215579
199	0xbd2a0756	-0.041510902
200	0x3ef14e8c	0.4713024
201	0x3fcd747a	1.6051171
202	0x3f8d165c	1.1022449
203	0x3fb8943a	1.4420235
204	0xbef41cb0	-0.47678137
205	0x3f5fc235	0.8740571
206	0x3f90d73c	1.1315684
207	0x3f9274bf	1.1441878
208	0x3f8ce75d	1.1008106
209	0x3e1b9de4	0.15196949
210	0xbf00b08b	-0.50269383
211	0x3f9461d3	1.1592354
212	0x3c698680	0.014253259
213	0xbe7edf1b	-0.24889795
214	0xbf028e3c	-0.5099828
215	0xbc485290	-0.012226716
216	0x3e8363e9	0.25662163
217	0x3f6e8a30	0.9317961
218	0x3f22671d	0.6343859
219	0x3f5dd9ff	0.8666076
220	0xbe8f095b	-0.27936825
221	0x3f06516e	0.52468
222	0x3f24fd4c	0.64449
223	0x3f28166e	0.65659225
224	0x3f86c4ff	1.0528868
225	0x3e4285ea	0.18996397
226	0xbef074d3	-0.4696413
227	0x3fa45a5e	1.2840078
228	0x3e566213	0.2093585
229	0xbe9af264	-0.30263054
230	0xbf2eae1c	-0.6823442
231	0x3daf8203	0.0856972
232	0x3e5d9dac	0.21642178
233	0x3f8ffbd3	1.1248726
234	0x3f37fb9c	0.718683
235	0x3f50b1b5	0.8152116
236	0xbeea1b9c	-0.4572419
237	0x3ec47e7a	0.38377744
238	0x3f352162	0.70754063
239	0x3f6658cf	0.8997926
240	0x3eded6fd	0.43523398
241	0x3d480d97	0.048841085
242	0xbe559440	-0.20857334
243	0x3f0419e1	0.5160199
244	0x3c9b8524	0.018984385
245	0xbe0be50a	-0.1366159
246	0xbe926f21	-0.2860041
247	0x3b81e778	0.003964361
248	0x3bfe0400	0.0077519417
249	0x3edcad7b	0.43101105
250	0x3e9a7585	0.30167785
251	0x3eb301ba	0.34962255
252	0xbe0f284d	-0.13980217
253	0x3e311216	0.17292055
254	0x3e92156a	0.28531963
255	0x3ea3c038	0.3198259

item_embed f4 [802, 16]
0	0xbe8bcc04	-0.2730409
1	0x3d97f5fe	0.07419966
2	0xbe44a62a	-0.19204012
3	0x3e02f590	0.12788987
4	0x3e84767a	0.2587164
5	0x3d922359	0.07135648
6	0x3e652fcc	0.22381514
7	0xbc139436	-0.009007504
8	0x3d3b351d	0.04570495
9	0xbccec450	-0.025240093
10	0x3e9e07b3	0.3086525
11	0x3e73d815	0.23812898
12	0xbc81f434	-0.015863515
13	0xbe6d63a7	-0.23182546
14	0x3d26fa0b	0.040765803
15	0x3dcf2ff8	0.10116571
16	0xbdc029a8	-0.09382945
17	0xbd4da92c	-0.050210163
18	0xbd972371	-0.07379807
19	0x3e816089	0.25268963
20	0x3e0d8381	0.13819696
21	0x3e3ba1d5	0.18323453
22	0x3e0c232d	0.13685293
23	0xbe21642f	-0.15760873
24	0xbdaf8852	-0.08570923
25	0xbe14f2b2	-0.14545706
26	0x3e4bf3de	0.19917247
27	0x3e4496a2	0.19198087
28	0x3df01b3d	0.11723945
29	0xbe809078	-0.2511022
30	0xbd5100fc	-0.05102633
31	0x3dad1b84	0.08452514
32	0xbe800794	-0.25005782
33	0x3e91c042	0.28466994
34	0xbe77c60c	-0.24196643
35	0xbc8fd120	-0.017555773
36	0x3e8db1fe	0.2767486
37	0xbd34b302	-0.044116028
38	0x3e424594	0.18971854
39	0xbdbc935c	-0.09207794
40	0xbe6afbdb	-0.22947638
41	0x3d034d26	0.032055996
42	0x3ea20c52	0.31650025
43	0x3ebfbbe2	0.3744803
44	0xbe3ec475	-0.1862963
45	0xbcb59cd4	-0.022169508
46	0x3e47ed5a	0.19524136
47	0xbd87faeb	-0.06639656
48	0xbde102c3	-0.10986855
49	0x3d9e7fb2	0.077392
50	0xbef76e44	-0.48326313
51	0x3e6e69b3	0.23282509
52	0x3f043bf1	0.51653963
53	0x3da72366	0.081610486
54	0x3f123cf5	0.57124263
55	0xbe05c749	-0.13064303
56	0x3c03b6f0	0.008039221
57	0x3e068149	0.13135256
58	0x3e543009	0.20721449
59	0x3e9b786f	0.3036532
60	0x3ebfbf98	0.37450862
61	0xbeec4ddd	-0.46153155
62	0xbe2b8297	-0.16749035
63	0x3e1d357a	0.15352431
64	0xbda7dcfc	-0.08196446
65	0x3e609b9b	0.21934359
66	0xbe431b82	-0.19053462
67	0xbe2d14b9	-0.16902436
68	0x3ea15ad9	0.31514624
69	0xbe569bc0	-0.20957851
70	0x3eb1c18d	0.3471798
71	0xbdf35979	-0.118823
72	0x3e911c27	0.2834179
73	0x3ef8ad48	0.48569703
74	0x3ec962db	0.39333233
75	0x3e91c14c	0.28467786
76	0x3cd416fe	0.02588987
77	0xbe46ca82	-0.19413188
78	0x3de7228d	0.11285887
79	0x3e4908ac	0.19632214
80	0xbe7dc49a	-0.24782029
81	0x3c484970	0.01222454
82	0xbedc125b	-0.42982754
83	0x3e246f6e	0.16058132
84	0x3ed03da2	0.40672022
85	0x3eef46e6	0.4673378
86	0x3ecd62a9	0.40114334
87	0x3e512f0e	0.20428106
88	0xbd560fe0	-0.052261233
89	0xbdc6776f	-0.09690749
90	0xbe0b45ac	-0.13600796
91	0xbd46db36	-0.0485489
92	0x3ea9c048	0.3315451
93	0xbf0cd24e	-0.550084
94	0xbd8d4750	-0.068983674
95	0x3cd6cea4	0.02622158
96	0xbf085f32	-0.53270257
97	0x3ea14d2f	0.315042
98	0xbea88491	-0.3291364
99	0x3e39448c	0.18092555
100	0x3f2eee2a	0.6833216
101	0x3e2ae9bf	0.1669073
102	0x3ea0ea5a	0.31428796
103	0xbdfc93d8	-0.123328865
104	0x3c90a40c	0.017656349
105	0xbe5d0e37	-0.21587454
106	0x3e631184	0.2217465
107	0x3ed2d91e	0.41181272
108	0x3ebe9930	0.37226248
109	0xbf088558	-0.53328466
110	0xbeb6cc16	-0.3570258
111	0xbd9543c2	-0.072883144
112	0xbe8ca0a6	-0.27466315
113	0x3d963978	0.0733518
114	0xbe8c31de	-0.27381796
115	0x3df9bcac	0.121941894
116	0x3ebb229e	0.36549848
117	0x3d0981bc	0.03357099
118	0x3e88948e	0.26675838
119	0xbdd48988	-0.103777945
120	0x3dc54bc3	0.09633591
121	0x3a55e900	0.0008160025
122	0x3eb305a6	0.34965247
123	0x3eabf467	0.33584902
124	0xbc6ee060	-0.014579862
125	0xbe86c5eb	-0.26322874
126	0xbcda1cb8	-0.026625022
127	0x3e294fba	0.1653432
128	0xbe81d7e0	-0.25360012
129	0x3df15c50	0.11785185
130	0xbedb6314	-0.42849028
131	0x3dd0155e	0.101603255
132	0x3ef24e12	0.47325188
133	0x3e4a38ac	0.19748181
134	0x3edd5ef2	0.432365
135	0xbde4f376	-0.11179249
136	0x3cbb12e8	0.022836164
137	0x3d2e9cf0	0.042630136
138	0x3e557b84	0.20847899
139	0x3e88a069	0.26684883
140	0x3e8aa77d	0.27080908
141	0xbedd695e	-0.4324445
142	0xbe25aa49	-0.1617824
143	0x3dc4cac1	0.09608985
144	0xbeb3f890	-0.35150576
145	0x3e744134	0.23852998
146	0xbef5da40	-0.48018074
147	0x3ea5b286	0.32362765
148	0x3f14c227	0.5810875
149	0x3e087ce8	0.13328898
150	0x3f08d467	0.534491
151	0xbd281870	-0.04103893
152	0x3e0f5fc6	0.14001378
153	0x3d89acdc	0.067224234
154	0x3e0f74aa	0.14009348
155	0x3e9a1ce0	0.30100155
156	0x3e8e29f0	0.2776637
157	0xbf1bd1e0	-0.6086712
158	0xbdfdc876	-0.123917505
159	0x3e0c1a2b	0.13681857
160	0xbd966b0d	-0.07344637
161	0xbd70167c	-0.058615193
162	0xbe8e3e34	-0.27781832
163	0x3e1c5bde	0.1526942
164	0x3f084782	0.5323411
165	0x3e5ccffd	0.21563716
166	0x3ef940ac	0.48682153
167	0x3e1d5721	0.15365268
168	0x3e01310a	0.12616363
169	0x3e32bd97	0.17455135
170	0x3d68ed26	0.056866787
171	0x3d188504	0.03723623
172	0x3e94b1fc	0.2904204
173	0xbf0ce028	-0.55029535
174	0x3d050bd4	0.032481983
175	0x3e91cf0a	0.2847827
176	0xbec9a04a	-0.39380103
177	0x3e7bba9e	0.24582908
178	0xbea13ead	-0.3149313
179	0x3e11ddca	0.14244762
180	0x3f3e526f	0.74344534
181	0x3e5a33ba	0.21308795
182	0x3eba14be	0.3634395
183	0xbdb35203	-0.08755877
184	0x3ca5aee2	0.020224992
185	0xbda0af64	-0.07845953
186	0x3e0c139d	0.13679357
187	0x3ea442a1	0.32082084
188	0x3ec23a63	0.3793517
189	0xbf16740a	-0.5877081
190	0xbe7d4293	-0.24732427
191	0x3caa422c	0.020783506
192	0xbef6ef55	-0.4822947
193	0x3e8fadb4	0.28062212
194	0xbeef71ef	-0.46766612
195	0x3ea9345b	0.33047757
196	0x3f225bac	0.6342113
197	0x3ed3d966	0.413768
198	0x3f072734	0.52794194
199	0xbd538c78	-0.051647633
200	0xbdb24070	-0.08703697
201	0xbdec8b43	-0.115499996
202	0x3ca4d538	0.020121202
203	0x3e886a65	0.26643673
204	0x3eb1a599	0.34696653
205	0xbf30cf4c	-0.6906631
206	0xbe62526c	-0.22101754
207	0x3c1acc50	0.009448126
208	0xbe5ed520	-0.21760988
209	0x3e32cc4b	0.17460744
210	0xbf02b99b	-0.5106446
211	0x3e10c162	0.1413627
212	0x3f07fd90	0.5312128
213	0x3e7cd1e9	0.2468945
214	0x3ef5e48a	0.48025924
215	0xbe7fb5dd	-0.24971719
216	0xbe0a5bce	-0.13511583
217	0xba331f00	-0.00068329275
218	0x3e1e7f2f	0.15478204
219	0x3eaff491	0.34366277
220	0x3ea3b774	0.319759
221	0xbedfc8bb	-0.43707833
222	0xbe58f174	-0.21185857
223	0x3d76e9b4	0.06028147
224	0xbeb2db8e	-0.34933132
225	0x3e577ebc	0.21044439
226	0xbe959e57	-0.29222366
227	0x3db77b36	0.089590475
228	0x3f35e91e	0.71058834
229	0x3e16747c	0.14692873
230	0x3eb3cf70	0.351192
231	0xbd49e8d4	-0.049294308
232	0x3dcde08c	0.100525945
233	0xbc974e50	-0.01846996
234	0x3e246b36	0.16056523
235	0x3e9daf6b	0.30797896
236	0x3eabfd50	0.335917
237	0xbf0b4d92	-0.5441524
238	0xbe3d00a6	-0.18457279
239	0x3d716bda	0.058940746
240	0xbf2d7ee1	-0.67771727
241	0x3e9eb2e6	0.30995864
242	0xbe91aa50	-0.2845025
243	0x3eaa094a	0.33210212
244	0x3f0deb40	0.5543709
245	0x3e5b3dc9	0.21410288
246	0x3dfc414f	0.12317144
247	0xbe467c69	-0.19383396
248	0x3ca8ee7e	0.020621534
249	0xbf07feea	-0.53123343
250	0x3e826af8	0.25472236
251	0x3edfc177	0.4370229
252	0x3ee2bf4a	0.44286567
253	0xbf0c2b0a	-0.5475317
254	0xbf16ed4d	-0.5895584
255	0xbe39d49c	-0.1814751
