backend/recsys_models/movielens_model/movielens_deepfm_model_tf_variables.npz (npz, 291328 bytes, 15 tensors)

embedding/user_linear_var:0 f4 [944, 1]
0.053616986 0.06568972 -0.0019752833 0.0031597165 0.03279178 -0.004502682 -0.056501534 0.018376363
0.054399084 -0.0692951 0.015483809 -0.06820744 0.010991536 -0.020298239 -0.041749153 -0.059724808
-0.058916878 0.011271975 -0.040187426 0.031586893 -0.04961399 -0.040880706 0.0022214516 0.04660191
-0.008432132 -0.004141632 -0.025335431 -0.0109559875 -0.0022947658 0.06985618 -0.03884747 0.053166356
0.012602288 0.047122307 0.05479133 0.0043956395 -0.022222856 0.06120323 0.06466269 -0.054533456
0.017238386 -0.04964996 0.06371214 0.05601005 0.013842269 0.03381626 0.049084146 -0.030128766
0.05959249 0.003217362 -0.07573114 0.034340654 -0.004454367 0.039872363 -0.044436295 0.017728223
0.018803062 -0.057933632 -0.03646104 -0.012429855 -0.03153971 0.044704203 0.0561276 -0.061987057
-0.034361403 0.06644227 0.059611574 0.06390617 -0.002436778 -0.03169066 0.030656064 -0.04289969
0.048196293 0.050393607 -0.058770955 0.062126 0.073242426 0.014109681 -0.0037284256 0.024458192
-0.06971458 -0.040985096 -0.0268257 0.060326856 0.0601608 -0.056439064 -0.05221348 0.039884053
0.0021913531 0.013554563 -0.03491757 -0.050225276 -0.07415601 -0.06632243 -0.042372584 0.047383603
0.0033015925 -0.0636023 -0.047455877 0.045017328 -0.07465954 -0.057230808 0.0113490615 0.052751344
-0.05750633 0.026270706 0.03860298 0.04716201 0.035147473 -0.030270193 0.035277218 -0.011079441
-0.01758637 0.032977104 -0.03215187 0.046896156 -0.0083593195 0.00683503 -0.032119844 -0.016152473
0.036826305 -0.058782235 0.061507653 -0.05180497 -0.019774089 -0.0043042633 -0.0071155992 0.062228765
0.069626264 -0.020458007 0.052671555 -0.004660644 -0.07656444 0.06617918 -0.051008906 -8.3221e-05
0.037335902 -0.05026556 -0.010294827 -0.058408964 0.05806715 -0.020069255 -0.06565078 -0.043139257
0.02301548 -0.061780978 -0.073474064 -0.044376776 -0.010286724 -0.034688327 0.07545708 0.0037632221
0.040492762 -0.006687776 0.031508572 0.047178052 -0.03977614 -0.05602678 0.06833803 0.042781793
0.008079649 0.005760032 -0.029326627 -0.018610908 -0.007932962 -0.0726745 0.006711639 0.06837919
-0.07510639 -0.07315925 -0.0052339123 0.04666309 0.033499017 0.040818278 -0.020289604 0.054279517
0.0012252433 -0.0074319397 0.008340413 0.050277513 0.004757115 -0.0136420345 0.027048402 0.046907164
-0.049986932 -0.03972764 0.07063295 -0.040188037 -0.05769213 0.05490778 0.0009200072 -0.04612855
0.057221837 0.05544465 0.08094413 0.021843808 -0.06736768 0.020919183 0.046654817 0.0273601
-0.071969375 -0.010650138 0.018689327 -0.014070478 -0.05487377 -0.0040232292 -0.019459428 0.02963817
-0.050256316 0.06960624 -0.075684614 0.0369052 0.0683101 0.06987168 0.07543861 0.033081874
-0.04469122 -0.054319005 -0.042573437 0.0778952 -0.048191 -0.013935484 0.052974574 0.06481333
0.0076672747 0.06294361 0.070173964 -0.0021048025 0.06758375 -0.07875399 0.04131642 -0.0126096355
-0.022552172 -0.031613152 0.004547452 0.0745629 -0.06712155 -0.060768005 0.0053570676 0.06097458
-0.06362406 0.065758064 -0.03949072 -0.027372517 0.039188303 -0.028906945 -0.06379282 0.026251627
-0.03507565 -0.0046140593 0.004095217 0.051827 -0.04653822 -0.049942356 0.022804946 0.06738352
00000000: 7c9d 5b3d 5588 863d c173 01bb 3f13 4f3b
00000010: ac50 063d 3c8b 93bb 276e 67bd 078a 963c
00000020: 93d1 5e3d 97ea 8dbd cdaf 7d3c 58b0 8bbd
00000030: d815 343c 7e48 a6bc 2901 2bbd 00a2 74bd
00000040: d352 71bd 17ae 383c 929b 24bd 4261 013d
00000050: 0a38 4bbd 8772 27bd c695 113b a5e1 3e3d
00000060: ed26 0abc 87b6 87bb 408c cfbc be80 33bc
00000070: c863 16bb c210 8f3d 861e 1fbd f7c4 593d
00000080: d479 4e3c 5203 413d e06c 603d 4c09 903b
00000090: b50c b6bc 3db0 7a3d df6d 843d 795e 5fbd
000000a0: 8437 8d3c c25d 4bbd 837b 823d cb6a 653d
000000b0: afca 623c eb82 0a3d 750c 493d 9ad0 f6bc
000000c0: 4117 743d 61da 523b ee18 9bbd c9a8 0c3d
000000d0: f0f5 91bb 3451 233d d502 36bd c73a 913c
000000e0: e108 9a3c d14b 6dbd 2c58 15bd 97a6 4bbc
000000f0: c82f 01bd c11b 373d 0ee6 653d 24e6 7dbd
00000100: 8bbe 0cbd e312 883d 442b 743d 3de1 823d
00000110: 5ab2 1fbb 11ce 01bd 6d22 fb3c 96b7 2fbd
00000120: 7a69 453d 8769 4e3d d0b9 70bd d577 7e3d
00000130: 2000 963d 4b2c 673c 9a58 74bb 8c5c c83c
00000140: 85c6 8ebd fddf 27bd 92c1 dbbc 4b19 773d
00000150: 2c6b 763d a62c 67bd cddd 55bd 765d 233d
00000160: ce9c 0f3b f513 5e3c ba05 0fbd 05b9 4dbd
00000170: 1bdf 97bd 0ed4 87bd e08e 2dbd 4f15 423d
00000180: 885f 583b ec41 82bd 1861 42bd 1764 383d
00000190: 1ae7 98bd da6a 6abd 6af1 393c cb11 583d
000001a0: c28b 6bbd aa35 d73c 291e 1e3d f42c 413d
000001b0: ccf6 0f3d 32f9 f7bc d87e 103d 8b86 35bc
000001c0: 4b11 90bc 0013 073d aeb1 03bd 2f16 403d
000001d0: 87f5 08bc 63f8 df3b 1990 03bd 3152 84bc
000001e0: 2ed7 163d a4c5 70bd 73ef 7b3d 7331 54bd
000001f0: 45fd a1bc c70a 8dbb f929 e9bb 97e3 7e3d
00000200: 3798 8e3d 8d97 a7bc 21be 573d 51b8 98bb
00000210: d1cd 9cbd f388 873d b7ee 50bd ef86 aeb8
00000220: 88ed 183d 43e3 4dbd a2ab 28bc 3d3e 6fbd
00000230: d2d7 6d3d 4768 a4bc eb73 86bd cab2 30bd
00000240: f68a bc3c 0d0e 7dbd 9279 96bd 6cc4 35bd
00000250: a689 28bc 5915 0ebd 3e89 9a3d 64a0 763b
00000260: bddb 253d 2225 dbbb 220f 013d c63d 413d
00000270: 4eec 22bd 567c 65bd cff4 8b3d f63b 2f3d
00000280: 8160 043c a7be bc3b 653e f0bc e775 98bc
00000290: 41f9 01bc 5ed6 94bd 4fed db3b 640a 8c3d
000002a0: 61d1 99bd 84d4 95bd 3d81 abbb cc21 3f3d
000002b0: 4436 093d 1131 273d 6236 a6bc 3354 5e3d
000002c0: 5898 a03a a187 f3bb 3aa6 083c cbef 4d3d
000002d0: 93e1 9b3b d782 5fbc 9c94 dd3c ba21 403d
000002e0: 19bf 4cbd 73b9 22bd 02a8 903d 369c 24bd
000002f0: 954e 6cbd fbe6 603d a32c 713a 4af1 3cbd
00000300: 7261 6a3d ee19 633d 09c6 a53d c9f1 b23c
00000310: 11f8 89bd b55e ab3c 1f19 3f3d 4a22 e03c
00000320: ae64 93bd eb7d 2ebc 5c1a 993c dd87 66bc
00000330: 51c3 60bd 4bd5 83bb 6169 9fbc bfcb f23c
00000340: 91d9 4dbd b78d 8e3d 8900 9bbd e829 173d
00000350: 2ae6 8b3d e218 8f3d 8f7f 9a3d dc80 073d
00000360: 240e 37bd 9b7d 5ebd 7c61 2ebd 8587 9f3d
00000370: ed63 45bd a851 64bc defb 583d dabc 843d
00000380: c33d fb3b 94e8 803d 5eb7 8f3d baf0 09bb
00000390: 5969 8a3d c649 a1bd 683b 293d a598 4ebc
000003a0: 55bf b8bc cb7c 01bd cb02 953b 6fb4 983d
000003b0: 0677 89bd dfe7 78bd 578a af3b 7bc0 793d
000003c0: 554d 82bd 2aac 863d 05c1 21bd 543c e0bc
000003d0: ea83 203d 42ce ecbc cfa5 82bd a70d d73c
000003e0: 7cab 0fbd 8931 97bb 2c31 863b 8c48 543d
000003f0: dc9e 3ebd 5b90 4cbd 70d1 ba3c 5f00 8a3d

embedding/item_linear_var:0 f4 [1614, 1]
-0.06406735 0.021950057 0.039166946 -0.022569442 0.060793046 0.020571886 -0.060925227 -0.0012287042
0.04381412 0.047110125 -0.04799855 0.028238174 -0.059638172 -0.01665279 0.010368841 -0.053621467
-0.024512604 -0.040780786 0.019827887 0.03170992 -0.027531393 0.022326743 -0.035873447 -0.023624545
0.018174766 -0.04789165 -0.0021643974 -0.046322897 0.052406196 -0.056760106 0.003724212 0.018090744
-0.015476702 0.041842755 -0.03976409 -0.017849216 0.024882194 -0.055270955 -0.03807398 0.050884984
0.05597472 -0.029721547 0.011072908 -0.026900994 -0.058558047 -0.05637529 -0.050923556 0.010908215
-0.064701214 0.04333303 0.024184236 0.037838362 0.057069726 0.052107237 0.0231502 -0.025513731
0.030621987 -0.024169806 0.027511759 -0.02738947 0.055161286 -0.022831615 0.03736849 0.04332667
0.019635322 -0.024911148 0.056991372 -0.054869156 0.03642638 -0.06673794 0.036744133 0.010266598
-0.041267868 0.044872526 0.0029545566 -0.015558104 -0.027030831 0.065060444 0.054423492 0.004688508
-0.03335005 -0.030602109 -0.04217659 0.055753805 -0.007442075 0.032889098 -0.06075158 -0.048993
-0.05135328 -0.01946452 0.059702322 0.026919307 -0.042510744 0.014570073 0.018426945 0.03732792
0.047309883 0.030063394 0.027439984 -0.049511362 0.008662222 0.010475553 -0.012825499 -0.054272827
-0.047888607 -0.015007279 0.0001936436 -0.047277607 0.018399863 -0.050235838 0.026343767 0.039460957
-0.031155372 0.036666296 0.04025094 -0.0057047657 0.0343695 -0.033533726 0.013748263 -0.025096854
-0.027003948 0.05307727 0.0027750274 -0.056314096 -0.04849449 0.0050655412 -0.03553354 0.03317853
-0.037114505 0.0056180097 0.01690945 0.027536167 -0.0042236466 0.02011849 -0.055135284 -0.046340294
0.04759538 -0.040296204 0.047864154 0.0069822716 -0.016424663 -0.021735443 0.03726684 -0.04924655
0.016953485 0.061252743 -0.036427766 0.041487824 -0.0080411825 -0.01824575 -0.030377358 0.023567807
-0.06381777 -0.068717234 0.027261248 -0.008696071 0.013556083 -0.01759356 0.04199051 -0.051707
-0.026538674 -0.042217005 0.05095672 0.05539655 0.020530015 -0.024161272 -0.052980743 -0.01109135
-0.009213603 -0.05531643 0.03295866 0.024144888 0.042661738 0.032991923 0.03129977 0.02850653
-0.029588576 0.015941527 -0.021932315 -0.061285857 0.010080898 0.029431073 -0.00051494944 0.0065577053
-0.04988821 -0.00028452108 -0.045910258 -0.02918409 -0.034740727 0.040209256 0.015824622 -0.01628808
0.044346057 -0.063286066 -0.0051163435 -0.03241896 0.010699022 0.04648168 0.009510614 -0.028738428
-0.038531825 0.016096825 -0.03352635 -0.04520639 0.043672662 -0.0368775 0.03245043 -0.052378587
-0.015197804 -0.0048632603 -0.0017541035 -0.05359575 -0.015390879 0.00436447 -0.035949156 0.0038032476
0.043048013 -0.062192455 0.006796367 -0.016543247 0.012048292 0.050185848 0.010822234 0.010513107
0.013422843 0.053719014 -0.016536247 0.032549486 0.0166996 -0.03795046 0.040849067 -0.05982213
0.05756269 -0.0008472222 -0.005323912 -0.0074475827 0.006068513 -0.031781007 0.029563935 0.008753607
0.022978138 -0.019102152 0.039285235 0.027434349 -0.028295247 -0.04871419 -0.037668288 0.044367284
-0.039297644 0.002113647 0.0010551171 0.024003582 0.013599069 -0.021955015 -0.041208584 -0.04997939
00000000: be35 83bd 9bd0 b33c 856d 203d 8de3 b8bc
00000010: 2102 793d 5f86 a83c bb8c 79bd 790c a1ba
00000020: 6f76 333d 8cf6 403d 219a 44bd be53 e73c
00000030: 2847 74bd 6f6b 88bc 12e2 293c 2fa2 5bbd
00000040: a8ce c8bc c109 27bd 186e a23c 43e2 013d
00000050: 8489 e1bc 93e6 b63c 09f0 12bd 4388 c1bc
00000060: 3fe3 943c 092a 44bd 90d8 0dbb 14bd 3dbd
00000070: e1a7 563d 497d 68bd e911 743b 0a33 943c
00000080: fe91 7dbc 4f63 2b3d acdf 22bd 8538 92bc
00000090: bed5 cb3c cc63 62bd 76f3 1bbd c66c 503d
000000a0: bf45 653d 9a7a f3bc 246b 353c 795f dcbc
000000b0: 90da 6fbd c7e9 66bd 3895 50bd 5fb8 323c
000000c0: 1282 84bd fa7d 313d 051e c63c 66fc 1a3d
000000d0: f2c1 693d 666e 553d 7da5 bd3c 2c02 d1bc
000000e0: f6da fa3c c2ff c5bc 5760 e13c e25f e0bc
000000f0: cdf0 613d 5e09 bbbc b40f 193d 4e77 313d
00000100: 41da a03c 7712 ccbc c96f 693d 7bbe 60bd
00000110: d433 153d e7ad 88bd 0481 163d 3c35 283c
00000120: 7f08 29bd 41cc 373d 3ca1 413b 6be7 7ebc
00000130: c36f ddbc 693e 853d 2beb 5e3d 0ea2 993b
00000140: 109a 08bd 46b1 fabc 5cc1 2cbd 1a5e 643d
00000150: a6dc f3bb b8b6 063d a6d6 78bd e2ac 48bd
00000160: d157 52bd 0f74 9fbc 6c8a 743d e185 dc3c
00000170: bf1f 2ebd 51b7 6e3c 1bf4 963c 29e5 183d
00000180: 02c8 413d 8247 f63c d1c9 e03c 6dcc 4abd
00000190: feeb 0d3c a7a1 2b3c 0b22 52bc 2f4d 5ebd
000001a0: d826 44bd 17e1 75bc cf0c 4b39 2aa6 41bd
000001b0: 4fbb 963c 18c4 4dbd e2ce d73c d0a1 213d
000001c0: 8d39 ffbc 662f 163d 2bde 243d 0bef babb
000001d0: 08c7 0c3d a95a 09bd 6540 613c eb97 cdbc
000001e0: 6237 ddbc 8d67 593d 3cdd 353b 9ca9 66bd
000001f0: 29a2 46bd d7fc a53b 9e8b 11bd 36e6 073d
00000200: 6105 18bd 4817 b83b b085 8a3c 8793 e13c
00000210: 8466 8abb 88cf a43c 89d5 61bd 52cf 3dbd
00000220: 60f3 423d a20d 25bd 340d 443d 8acb e43b
00000230: 048d 86bc 870e b2bc 1da5 183d c0b6 49bd
00000240: 09e2 8a3c 28e4 7a3d 4835 15bd 23ef 293d
00000250: 2abf 03bc 1c78 95bc f0d9 f8bc 4611 c13c
00000260: e4b2 82bd 9fbb 8cbd fb52 df3c f779 0ebc
00000270: 551a 5e3c 5f20 90bc 3efe 2b3d b8ca 53bd
00000280: a267 d9bc bdeb 2cbd feb7 503d 7ee7 623d
00000290: 902e a83c dced c5bc 5602 59bd 7eb8 35bc
000002a0: a7f4 16bc 7b93 62bd a9ff 063d 80cb c53c
000002b0: 13be 2e3d 8a22 073d 3034 003d 8786 e93c
000002c0: be63 f2bc ce97 823c 66ab b3bc e106 7bbd
000002d0: 5a2a 253c 6f19 f13c acfd 06ba 05e2 d63b
000002e0: 9457 4cbd c62b 95b9 650c 3cbd 7913 efbc
000002f0: 4b4c 0ebd 76b2 243d a3a2 813c 946e 85bc
00000300: 36a4 353d 209c 81bd 00a7 a7bb bec9 04bd
00000310: f34a 2f3c 9363 3e3d 68d2 1b3c da6c ebbc
00000320: 8cd3 1dbd 7ddd 833c ed52 09bd 562a 39bd
00000330: 1be2 323d dd0c 17bd beea 043d ee8a 56bd
00000340: 3600 79bc fc5b 9fbb f2e9 e5ba 3887 5bbd
00000350: 062a 7cbc d403 8f3b 6c3f 13bd e83f 793b
00000360: 1d53 303d 84bd 7ebd 0fb4 de3b b485 87bc
00000370: 3366 453c ad8f 4d3d bd4f 313c 2b3f 2c3c
00000380: 7ceb 5b3c 7808 5c3d 0677 87bc 9c52 053d
00000390: 99cd 883c f171 1bbd 5a51 273d 0d08 75bd
000003a0: dbc6 6b3d 1f18 5eba 3674 aebb da0a f4bb
000003b0: 60da c63b cd2c 02bd 1130 f23c 4a6b 0f3c
000003c0: a63c bc3c 1e7c 9cbc 8ee9 203d 00be e03c
000003d0: 6fcb e7bc 8888 47bd 104a 1abd 78ba 353d
000003e0: 91f6 20bd 1d85 0a3b db4b 8a3a 29a3 c43c
000003f0: a1ce 5e3c 01db b3bc 55ca 28bd 30b7 4cbd

embedding/user_embeds_var:0 f4 [944, 16]
0.07985535 -0.02194158 0.059316993 -0.04216895 0.04653625 -0.023106892 -0.070507884 -0.033448875
-0.022920601 -0.049857594 0.01888789 -0.05980177 -0.055900548 0.043701828 0.012065207 0.06421433
-0.057896875 -0.030826176 0.05481491 0.024893839 -0.0063129887 0.062222585 0.06960023 -0.079114914
-0.020618072 -0.08339004 0.026109625 -0.0076182913 0.008109592 -0.07447941 0.011764042 0.014536162
-0.04923545 0.06379325 0.045222837 -0.022251498 -0.025834864 -0.039694343 0.028917706 0.023060355
0.058534063 -0.0104562305 0.059797782 -0.0041007735 0.052583978 0.033822015 0.018285697 0.058021866
0.027311783 -0.06843887 -0.044850394 -0.04381907 0.030646646 0.053813804 0.054401245 -0.036333315
-0.03591483 0.005775604 0.054873023 0.043793324 0.06830026 0.022147493 -0.006830188 -0.04560319
0.03158471 -0.037498243 0.055350967 -0.068378605 0.029980708 0.02675917 0.053582244 -0.042278063
0.032779973 0.004959313 0.035722844 -0.032203443 -0.050362118 -0.0026723156 0.022276865 -0.086061135
0.08648493 0.06641308 0.06966865 0.08704679 0.012904007 0.038264118 -0.07473131 -0.04786159
0.02154819 0.09075931 0.05466032 0.023936959 0.07013212 0.019794537 0.05343149 0.049176894
0.08654046 0.08050473 0.042468276 0.032125093 -0.07596856 -0.020459678 0.009529402 0.09049006
0.02180206 0.031799886 -0.0032942167 0.09577069 0.061042763 0.009807926 -0.015257085 0.0368266
-0.058818344 0.03354415 0.064810194 -0.034126353 0.06343278 0.005562524 0.0022655898 0.08304124
0.026806356 0.06258381 0.034060728 0.021647489 -0.0022962284 -0.049349483 0.036998652 -0.033102013
0.01838607 0.022310708 0.04658118 0.014711269 0.06698482 0.039471664 -0.061021045 -0.0049945666
-0.070959084 0.0493112 -0.07476594 -0.02320637 -0.06345928 0.07375224 -0.020326644 -0.04094199
-0.042422485 -0.043414444 0.08247822 0.0058494355 -0.06605607 0.0044989246 -0.029997664 0.07656529
0.024162848 -0.0054948283 0.03912648 -0.011314564 0.032511342 0.0636861 -0.040436532 0.015032556
0.013752033 0.0040349034 -0.062201235 0.033369686 0.04554658 0.032053784 0.014030025 0.053590395
-0.078521684 -0.0031738586 -0.044452377 -0.08886751 -0.005123097 -0.059483696 -0.081140906 -0.056318223
0.05525427 -0.0740566 -0.045321155 0.0041842894 0.07681592 -0.042045787 -0.015392565 0.033133168
-0.0045300648 -0.072531536 -0.074535854 -0.024481306 0.047912635 0.019192383 -0.032247722 0.06876488
-0.048784826 0.030749012 0.035336975 0.069226004 -0.07123833 0.016002085 0.04616773 0.06437209
-0.016516505 -0.031086098 0.056886613 0.06462241 0.02284425 0.019949913 0.029120704 0.053167377
0.016463479 -0.00699948 -0.008943886 0.036259174 0.06200844 0.08559555 0.057399023 -0.02993465
-0.06892188 -0.004920651 -0.03652635 -0.023042222 0.05076866 -0.060607582 0.04960906 0.03142344
-0.0035356176 0.06709582 -0.019188145 -0.011322994 0.009419307 -0.006396351 -0.048759412 -0.075855955
0.015679134 -0.00074901315 0.025744915 -0.04577215 0.029403446 0.04561831 0.0020501022 -0.01748146
0.07073273 0.030656872 0.032817435 0.045137957 -0.024626687 0.003978728 -0.02345735 0.03700989
0.022808429 0.094423406 0.01944783 -0.046435352 -0.03507311 0.030948393 0.0052055935 0.08748822
00000000: 348b a33d d4be b3bc 60f6 723d 59b9 2cbd
00000010: cb9c 3e3d aa4a bdbc 7066 90bd b001 09bd
00000020: fcc3 bbbc 7a37 4cbd c7ba 9a3c b3f2 74bd
00000030: f9f7 64bd b000 333d 25ad 453c cd82 833d
00000040: 4625 6dbd 2d87 fcbc 9985 603d 2aee cb3c
00000050: 30dd cebb 1cdd 7e3d 918a 8e3d 0007 a2bd
00000060: 3be7 a8bc 66c8 aabd dae3 d53c dca2 f9bb
00000070: 18de 043c a988 98bd f8bd 403c 1529 6e3c
00000080: 1cab 49bd 09a6 823d 953b 393d c648 b6bc
00000090: a3a3 d3bc 8996 22bd d3e4 ec3c 12e9 bc3c
000000a0: 6ac1 6f3d 9c50 2bbc 85ee 743d c85f 86bb
000000b0: 4c62 573d f488 0a3d e3cb 953c 56a8 6d3d
000000c0: f6bc df3c ae29 8cbd 0cb5 37bd a07b 33bd
000000d0: ad0e fb3c dd6b 5c3d d7d3 5e3d 3ed2 14bd
000000e0: 6e1b 13bd 4741 bd3b 89c2 603d a160 333d
000000f0: 02e1 8b3d a96e b53c c5cf dfbb 69ca 3abd
00000100: f85e 013d c297 19bd b2b7 623d 150a 8cbd
00000110: 1a9a f53c 0c36 db3c 0e79 5b3d c32b 2dbd
00000120: 4b44 063d bc81 a23b 1e52 123d c2e7 03bd
00000130: 8248 4ebd 0422 2fbb f97d b63c d240 b0bd
00000140: 031f b13d 9503 883d 70ae 8e3d 9645 b23d
00000150: 546b 533c d6ba 1c3d bb0c 99bd 840a 44bd
00000160: d485 b03c 04e0 b93d 80e3 5f3d 7117 c43c
00000170: 6ea1 8f3d 2728 a23c fada 5a3d b66d 493d
00000180: 203c b13d aadf a43d 37f3 2d3d 9a95 033d
00000190: 6895 9bbd 0e9b a7bc 3521 1c3c da52 b93d
000001a0: 3c9a b23c 9940 023d c9e3 57bb 6c23 c43d
000001b0: fa07 7a3d 6cb1 203c daf8 79bc 7dd7 163d
000001c0: 81eb 70bd 9765 093d 35bb 843d 13c8 0bbd
000001d0: 0ce9 813d d545 b63b 4a7a 143b 8711 aa3d
000001e0: 0199 db3c f12b 803d 4383 0b3d 1356 b13c
000001f0: 527c 16bb af22 4abd e68b 173d fa95 07bd
00000200: 629e 963c f2c4 b63c e8cb 3e3d 8907 713c
00000210: 562f 893d 0aad 213d 34f1 79bd 76a9 a3bb
00000220: ff52 91bd 8afa 493d e31e 99bd 491b bebc
00000230: f0f6 81bd 6a0b 973d 1084 a6bc cab2 27bd
00000240: 33c3 2dbd 58d3 31bd 57ea a83d 9fac bf3b
00000250: 6848 87bd b76b 933b a9bd f5bc 43ce 9c3d
00000260: 2af1 c53c f60d b4bb 1743 203d b960 39bc
00000270: 9d2a 053d dc6d 823d c7a0 25bd 1c4b 763c
00000280: 3550 613c 3937 843b b9c6 7ebd a7ae 083d
00000290: 0d8f 3a3d d44a 033d 31de 653c 9a81 5b3d
000002a0: facf a0bd 8300 50bb b213 36bd 2b00 b6bd
000002b0: a7df a7bb 2da5 73bd 342d a6bd f0ad 66bd
000002c0: 4d52 623d fdaa 97bd ada2 39bd 5d1c 893b
000002d0: aa51 9d3d 3438 2cbd 1931 7cbc a5b6 073d
000002e0: f070 94bb 6a8b 94bd 41a6 98bd 058d c8bc
000002f0: 0a40 443d 5839 9d3c 3016 04bd 9ad4 8c3d
00000300: 99d2 47bd 5ae5 fb3c 81bd 103d 5dc6 8d3d
00000310: 67e5 91bd ce16 833c 601a 3d3d 84d5 833d
00000320: 9f4d 87bc 46a8 febc f001 693d c158 843d
00000330: dd23 bb3c 006e a33c 8b8e ee3c 09c6 593d
00000340: 6bde 863c e55b e5bb 6089 12bc 8084 143d
00000350: 90fc 7d3d b84c af3d 3d1b 6b3d 8339 f5bc
00000360: ea26 8dbd 6a3d a1bb a79c 15bd 0bc3 bcbc
00000370: ccf2 4f3d a83f 78bd df32 4b3d ddb5 003d
00000380: d2b5 67bb 8969 893d 7530 9dbc 1484 39bc
00000390: 7053 1a3c 7b98 d1bb f3b7 47bd 5e5a 9bbd
000003a0: 8771 803c 6c59 44ba 00e7 d23c 947b 3bbd
000003b0: 7fdf f03c 44da 3a3d 025b 063b 4735 8fbc
000003c0: 52dc 903d 1f24 fb3c 936b 063d 94e2 383d
000003d0: e8bd c9bc fd5f 823b a129 c0bc af97 173d
000003e0: bed8 ba3c 0f61 c13d 0e51 9f3c ff32 3ebd
000003f0: d2a8 0fbd 7c87 fd3c af93 aa3b 062d b33d

embedding/item_embeds_var:0 f4 [1614, 16]
0.049694736 -0.010157792 -0.0067309523 0.0011490368 -0.057134043 -0.012575904 -0.04455543 0.021560803
0.010305357 -0.019882789 0.00595965 0.0045870002 -0.01924943 -0.039283514 0.06555765 0.06405711
-0.057933427 -0.07952939 -0.030078346 -0.018144436 0.012951169 -0.04269214 -0.024938162 -0.082389876
-0.00057406933 -0.076789126 0.009894435 -0.049937733 -0.05216585 -0.06105111 -0.02996345 -0.074316144
0.051250327 -0.0475966 -0.050182194 0.005609586 -0.021219982 -0.01567909 -0.028999886 -0.0472323
0.043674823 0.01142778 -0.056909785 0.041631527 -0.04063037 0.04950631 0.015070716 0.040799726
0.00863259 -0.021176709 0.06424047 -0.014642347 -0.05225816 0.012602819 -0.043738615 0.055372562
-0.005065635 -0.024274142 0.03669472 0.06890747 -0.0216441 -0.050034516 0.026623936 0.04389119
-0.058795776 0.012496735 -0.0071876743 0.046360094 0.016853405 -0.0038187676 0.013292277 -0.026923854
-0.04609425 0.028214836 0.04416105 -0.026712777 -0.012552695 -0.011116306 0.03019404 -0.017839966
-0.015896004 -0.05257826 -0.029401802 -0.05088731 -0.014800017 -0.03239286 -0.04745855 0.032113563
0.045349967 0.009667478 -0.026343083 0.0077061937 0.0028426247 0.020529758 -0.063638404 -0.03720488
0.027884563 0.08236866 -0.026581975 0.024628859 -0.032560073 0.07551585 0.003026437 0.08575717
0.0026786695 0.005298952 -0.0021987504 0.024900807 0.071412586 -0.03635192 0.018137738 0.02799595
0.07423275 0.0023558827 -0.02420339 -0.02560719 -0.042798705 0.07798445 -0.039186344 0.07151063
0.015636249 0.032499023 -0.02417511 0.052603286 -0.031539824 -0.058501124 0.00969011 0.019797063
-0.025028257 -0.021597207 0.03668317 0.047728498 0.02101922 0.038841948 -0.020672629 -0.009402357
0.009342313 0.051748306 -0.0022240023 0.07217532 0.027205966 0.037289817 0.00711585 -0.026831806
0.016165728 0.017465157 -0.058212373 0.03971493 0.010741219 0.044215064 0.048403975 -0.020678028
-0.05257343 0.039686635 -0.007402611 -0.029747818 -0.020420646 -0.032793347 -0.051020376 0.02347421
-0.023516597 -0.0052010794 0.061576575 0.012537021 -0.07603314 0.017605944 -0.037025426 0.011879881
0.07475353 -0.009706318 0.03998365 0.003905205 0.07707015 -0.04734225 0.018289734 0.04322174
-0.018347224 0.008176643 0.08020068 0.022643441 -0.07688198 0.038952358 0.03357137 0.065966755
0.042702362 0.023775367 -0.026457459 -0.0069239386 0.083140604 -0.030251293 0.07337923 0.0026867143
-0.023263197 0.039099135 0.027209252 0.0037074862 -0.041042633 -0.028104097 -0.060870416 0.05947184
0.057918865 0.08174689 -0.0023524065 -0.017863458 -0.0224434 -0.0077699674 0.036932234 -0.012047842
-0.022554427 -0.0090610795 -0.019408612 0.070246026 0.03195672 -0.0051999674 -0.040217116 0.006902732
0.07355787 -0.032677956 0.05722497 -0.003841703 0.06495591 0.047775593 -0.032074552 0.08354529
-0.020836335 0.04530449 -0.013662553 -0.015414596 -0.05223068 -0.0117476005 -0.010390017 0.08344243
0.014353286 -0.019480124 0.06675946 0.013404663 0.0072882683 -0.018264694 0.045757167 0.013840676
0.0066135135 -0.014530328 0.028211558 0.015279331 0.01669351 0.06745026 -0.054689072 0.054021575
0.061995275 -0.038681086 -0.00033179086 -0.0040006684 0.0074205757 -0.009590738 0.045535643 0.054769654
00000000: b58c 4b3d de6c 26bc 528f dcbb 479b 963a
00000010: 6305 6abd 2a0b 4ebc c17f 36bd 48a0 b03c
00000020: cdd7 283c 3be1 a2bc 2b49 c33b 8c4e 963b
00000030: fbb0 9dbc c0e7 20bd 1743 863d 6030 833d
00000040: 9a4b 6dbd 4ee0 a2bd dd66 f6bc a4a3 94bc
00000050: 2431 543c f4dd 2ebd 1e4b ccbc 06bc a8bd
00000060: 247d 16ba 9e43 9dbd 451c 223c 828b 4cbd
00000070: dcab 55bd bb10 7abd e975 f5bc 1033 98bd
00000080: ddeb 513d a7f4 42bd d88b 4dbd 9ed0 b73b
00000090: 87d5 adbc 6f71 80bc 2b91 edbc a876 41bd
000000a0: 5fe4 323d 953b 3b3c 3c1a 69bd d285 2a3d
000000b0: 086c 26bd 21c7 4a3d 2aeb 763c 9d1d 273d
000000c0: b56f 0d3c c77a adbc 8290 833d 74e6 6fbc
000000d0: a70c 56bd 0e7c 4e3c 4327 33bd 57ce 623d
000000e0: a0fd a5bb 91da c6bc 344d 163d 5c1f 8d3d
000000f0: f84e b1bc fef0 4cbd 711a da3c 40c7 333d
00000100: d7d3 70bd 1bbf 4c3c 9586 ebbb 15e4 3d3d
00000110: 2710 8a3c 4a44 7abb dac7 593c 6a8f dcbc
00000120: 53cd 3cbd cd22 e73c 38e2 343d c1d4 dabc
00000130: d2a9 4dbc 2b21 36bc 7e59 f73c 1f25 92bc
00000140: 5638 82bc 4d5c 57bd 0cdc f0bc 366f 50bd
00000150: c57b 72bc 60ae 04bd e663 42bd 8389 033d
00000160: e3c0 393d 5764 1e3c 73cd d7bc 3d84 fc3b
00000170: 544b 3a3b 062e a83c da54 82bd 2564 18bd
00000180: 2b6e e43c e6b0 a83d 71c2 d9bc 76c2 c93c
00000190: b65d 05bd 0ea8 9a3d 3057 463b 75a1 af3d
000001a0: 9e8c 2f3b d5a2 ad3b e918 10bb c7fc cb3c
000001b0: c340 923d c0e5 14bd 9895 943c c357 e53c
000001c0: 5707 983d 2765 1a3b 3046 c6bc 2bc6 d1bc
000001d0: b24d 2fbd 50b6 9f3d dc81 20bd 2a74 923d
000001e0: 9717 803c b21d 053d e10a c6bc 8b76 573d
000001f0: e72f 01bd e09e 6fbd 44c3 1e3c 732d a23c
00000200: 0f08 cdbc a0ec b0bc 1741 163d f57e 433d
00000210: 8030 ac3c bc18 1f3d a559 a9bc 580c 1abc
00000220: 8010 193c 08f6 533d 91c0 11bb a7d0 933d
00000230: 0cdf de3c 35bd 183d 142c e93b 60ce dbbc
00000240: fd6d 843c 1713 8f3c 1970 6ebd 1fac 223d
00000250: f0fb 2f3c db1a 353d 3f43 463d f864 a9bc
00000260: 3d57 57bd 748e 223d 9a91 f2bb b2b1 f3bc
00000270: 3349 a7bc 5152 06bd befa 50bd fd4c c03c
00000280: e1a5 c0bc d16d aabb b837 7c3d 1468 4d3c
00000290: 43b7 9bbd 573a 903c f9a7 17bd d5a3 423c
000002a0: 6118 993d 4007 1fbc e5c5 233d 78ee 7f3b
000002b0: f4d6 9d3d f2e9 41bd 5ad4 953c 4709 313d
000002c0: eb4c 96bc 54f7 053c 4140 a43d bd7e b93c
000002d0: 4d74 9dbd 828c 1f3d 2282 093d 9419 873d
000002e0: ace8 2e3d 8fc4 c23c 50bd d8bc 35e2 e2bb
000002f0: 9f45 aa3d 8fd1 f7bc da47 963d 9613 303b
00000300: 7692 bebc 6a26 203d f0e5 de3c 4cf9 723b
00000310: 521c 28bd 903a e6bc 4253 79bd be98 733d
00000320: 553c 6d3d ea6a a73d d52a 1abb 6356 92bc
00000330: 39db b7bc 369b febb 4146 173d 5064 45bc
00000340: 10c4 b8bc ec74 14bc cffe 9ebc 26dd 8f3d
00000350: 0de5 023d 7d64 aabb b4ba 24bd 5030 e23b
00000360: 82a5 963d 52d9 05bd bb64 6a3d 15c5 7bbb
00000370: 9b07 853d 57b0 433d 9b60 03bd cb19 ab3d
00000380: f6b0 aabc 3391 393d e7d8 5fbc 808d 7cbc
00000390: d6ef 55bd 0279 40bc e43a 2abc dde3 aa3d
000003a0: 0b2a 6b3c c894 9fbc 2fb9 883d 3b9f 5b3c
000003b0: 6dd2 ee3b d79f 95bc de6b 3b3d 01c4 623c
000003c0: 2cb6 d83b 9d10 6ebc ed1b e73c 2956 7a3c
000003d0: d4c0 883c 5d23 8a3d a601 60bd ba45 5d3d
000003e0: c2ee 7d3d 0f70 1ebd 37f4 adb9 0a18 83bb
000003f0: 4d28 f33b 7922 1dbc 9583 3a3d 2556 603d

embedding/sparse_linear_var:0 f4 [82]
-0.17362137 0.17523097 0.0008047968 -0.18021046 -0.13562717 -0.14379902 0.072125524 -0.012559251
-0.00027637839 -0.15489936 -0.09234698 0.03143486 -0.13879208 0.13092683 -0.11657624 -0.12560496
0.17209755 -0.0951609 0.07048285 -0.09210556 0.058213416 -0.1580538 -0.16553731 0.16360256
-0.04346028 0.083305515 0.1059437 0.09462461 -0.14436932 0.038375154 -0.052997082 0.15365908
-0.054185256 0.04973691 0.18124075 0.0038982015 0.09256948 -0.13026896 -0.122967504 -0.12661824
0.085089125 0.02741446 0.056251794 0.14195718 0.122605845 0.13228151 0.05338191 0.016410545
0.034896225 -0.096445724 0.11936761 0.011460941 0.098308444 0.14747758 0.12289301 -0.07625826
-0.13499795 -0.1056281 0.07070823 -0.20098558 -0.065138675 0.11504297 -0.06033238 0.027355295
-0.16999675 0.17988434 0.0049437955 0.046574324 0.05610145 0.051337887 0.06281379 0.020624205
0.041718997 -0.09772027 -0.077375285 -0.08754778 0.056751233 -0.031967204 0.012392014 -0.017624652
0.11509438 0.048734862
00000000: cdc9 31be bf6f 333e 00f9 523a 1789 38be
00000010: d9e1 0abe 0d40 13be 8cb6 933d 51c5 4dbc
00000020: e1e6 90b9 f09d 1ebe 6a20 bdbd d7c1 003d
00000030: 831f 0ebe af11 063e 86bf eebd 969e 00be
00000040: 573a 303e b8e3 c2bd 5059 903d d7a1 bcbd
00000050: 3171 6e3d dbd8 21be 9d82 29be 6e87 273e
00000060: 6803 32bd 159c aa3d 03f9 d83d 8cca c13d
00000070: 8dd5 13be 442f 1d3d 7813 59bd ce58 1d3e
00000080: 5cf1 5dbd eeb8 4b3d 2d97 393e f878 7f3b
00000090: 1195 bd3d 3a65 05be 63d6 fbbd 36a8 01be
000000a0: 3543 ae3d 4a94 e03c 4868 663d 395d 113e
000000b0: c618 fb3d ce74 073e fda6 5a3d 686f 863c
000000c0: 58ef 0e3d 5685 c5bd 0177 f43d acc6 3b3c
000000d0: f055 c93d 5d04 173e 55af fb3d 4a2d 9cbd
000000e0: e73c 0abe 8c53 d8bd 7acf 903d 2acf 4dbe
000000f0: 6d67 85bd a69b eb3d 161f 77bd 3618 e03c
00000100: a113 2ebe 9a33 383e 90ff a13b b8c4 3e3d
00000110: a2ca 653d ad47 523d 84a4 803d 18f4 a83c
00000120: 8ae1 2a3d 9121 c8bd ef76 9ebd 404c b3bd
00000130: fb73 683d 0bf0 02bd e007 4b3c 9361 90bc
00000140: 9ab6 eb3d 359e 473d

embedding/sparse_embeds_var:0 f4 [82, 16]
-0.23337722 -0.04743568 -0.12978718 0.08815312 0.20837769 -0.17446254 0.03643818 -0.12311797
-0.17817692 -0.043584622 0.17531826 0.2007637 0.15069851 -0.16157387 0.17983542 -0.04003345
-0.050939474 -0.14650302 -0.10057956 -0.21823542 -0.20125227 -0.0004735285 0.22525467 0.24307474
-0.21250762 0.07036159 -0.016006975 0.016062878 -0.021389559 -0.15676858 0.20548654 -0.117458545
-0.14215834 -0.09696935 -0.11518337 -0.065041155 0.0035627112 -0.087468036 0.13084643 0.05997839
-0.19534227 0.013388485 0.07965564 0.108413294 0.06465448 -0.15917122 0.19266099 -0.078746
-0.20136882 0.19098057 -0.15451644 -0.14355403 0.001390279 -0.09333538 -0.1425618 -0.19364241
0.08083176 -0.10136375 0.13864867 0.24983287 -0.0012758443 -0.21521695 0.08161736 0.030583546
-0.124669515 -0.09385314 -0.09641097 0.046383146 0.16150334 -0.09673381 0.027559968 0.20564903
0.00060796586 0.06336889 0.14177887 0.16481999 0.122285604 -0.19051918 0.20405544 -0.11304894
0.22849321 -0.17893589 -0.054889556 -0.07940227 -0.023971135 0.07059961 -0.123884276 0.024759363
0.03550606 0.16043863 -0.17547573 0.035410687 -0.05460867 0.023346087 0.08476559 -0.014903972
-0.18422464 -0.11799995 0.079987906 0.22962035 0.18147792 0.15809318 0.2099696 -0.15923806
0.22789572 -0.2300474 0.030156557 -0.047192477 0.036070697 -0.24611574 -0.123959236 -0.19410382
0.09458376 -0.0031205784 -0.1566457 0.06262859 0.20637149 0.2237399 -0.06083605 0.1374421
0.17023954 -0.08901559 0.09518356 0.014186992 -0.079788186 -0.1864728 -0.24976274 0.16145222
0.20005961 -0.045205705 0.13875736 0.07735299 -0.07983475 0.14576954 0.13869166 -0.10582252
-0.17054842 -0.18133952 -0.11138183 0.09465078 -0.05212277 0.16534044 0.2737626 -0.0077677
-0.1419355 -0.18687187 0.10377302 0.16348717 -0.18864739 -0.11618207 0.024613785 -0.10016737
-0.13688257 -0.13388447 0.21739952 -0.13265091 0.07828523 0.14623816 0.14117844 0.03271379
0.03197227 0.016851332 0.20687005 0.2317173 -0.048016585 -0.10171835 -0.20773196 -0.22189192
-0.09460131 -0.16625917 -0.2127927 0.2237613 0.010455974 -0.18177454 0.11046218 0.1344869
0.15313077 0.086266354 0.071928434 -0.10357154 0.16019017 -0.17075552 0.13446264 0.000166209
-0.021578787 -0.11105366 -0.1525687 0.21164608 -0.18461093 0.028052727 0.07680852 -0.03964036
-0.21280804 0.17142753 0.2066618 -0.18781741 0.21468759 0.22343129 -0.22507608 -0.06795561
-0.19710885 0.06892428 -0.12717427 0.038464196 0.24462973 -0.048550233 -0.15317479 0.18288524
-0.19222285 -0.16762686 0.0058874153 -0.20642085 0.19129099 0.2591549 -0.22103402 0.18851194
-0.21119653 0.010886113 -0.20244391 0.25865945 0.22738756 -0.111797184 0.20894772 0.22005638
0.17246304 0.14963476 -0.024971256 0.17935185 0.08230775 0.02889853 0.21396165 -0.0953371
-0.2218473 0.17316152 -0.2419308 0.11741452 0.08022511 0.02298803 0.19461703 -0.107151136
-0.01669252 0.19572566 0.014647267 -0.09734123 -0.09327884 -0.08656685 -0.016348101 0.13284467
-0.14233017 0.25280976 0.073174626 0.08138347 -0.18487264 -0.056519944 -0.14047618 0.16588557
00000000: 70fa 6ebe ea4b 42bd eee6 04be 9f89 b43d
00000010: f660 553e 4fa6 32be 3340 153d 4625 fcbd
00000020: 0374 36be ca85 32bd a186 333e 0095 4d3e
00000030: b650 1a3e 9f73 25be c726 383e 1dfa 23bd
00000040: e9a5 50bd e304 16be a8fc cdbd 1b79 5fbe
00000050: 1315 4ebe eb43 f8b9 29a9 663e 96e8 783e
00000060: 999b 59be bd19 903d 0f21 83bc 4c96 833c
00000070: 2839 afbc f187 20be 106b 523e 1b8e f0bd
00000080: f591 11be de97 c6bd 42e5 ebbd 4c34 85bd
00000090: 607c 693b 7122 b3bd 9bfc 053e e6ab 753d
000000a0: ce07 48be 605b 5b3c 7f22 a33d ca07 de3d
000000b0: 9169 843d c8fd 22be ec48 453e 9545 a1bd
000000c0: a133 4ebe 6990 433e 8f39 1ebe d4ff 12be
000000d0: 063a b63a 9f26 bfbd b8fb 11be 324a 46be
000000e0: 1f8b a53d cc97 cfbd ebf9 0d3e 30d4 7f3e
000000f0: 3b3a a7ba d561 5cbe 0127 a73d 588a fa3c
00000100: bb52 ffbd 1336 c0bd 1d73 c5bd 41fc 3d3d
00000110: 2261 253e 601c c6bd 71c5 e13c a995 523e
00000120: e65f 1f3a 8cc7 813d 7b2e 113e 92c6 283e
00000130: e070 fa3d 7617 43be e9f3 503e 3486 e7bd
00000140: 20fa 693e f83a 37be dfd3 60bd a89d a2bd
00000150: 1d5f c4bc 8796 903d 0ab7 fdbd 26d4 ca3c
00000160: cd6e 113d 064a 243e e9af 33be cc0a 113d
00000170: 57ad 5fbd 4b40 bf3c 9599 ad3d ca2f 74bc
00000180: 62a5 3cbe f5a9 f1bd b3d0 a33d 9921 6b3e
00000190: 59d5 393e 2ee3 213e 4502 573e 4d0f 23be
000001a0: 7f5d 693e 8c91 6bbe e20a f73c e64c 41bd
000001b0: debe 133d c405 7cbe 57de fdbd 27c3 46be
000001c0: 21b5 c13d 9e82 4cbb bb67 20be 6b43 803d
000001d0: 0c53 533e 131c 653e 392f 79bd 9fbd 0c3e
000001e0: 4653 2e3e ce4d b6bd 99ef c23d 8f70 683c
000001f0: fd67 a3bd baf2 3ebe cec1 7fbe bb53 253e
00000200: 6ddc 4c3e 9e29 39bd 6916 0e3e 3f6b 9e3d
00000210: 6780 a3bd 9c44 153e 3005 0e3e 7ab9 d8bd
00000220: 3fa4 2ebe 11b1 39be 281c e4bd 45d8 c13d
00000230: b07e 55bd 014f 293e 9d2a 8c3e 3188 febb
00000240: 8a57 11be 575b 3fbe f386 d43d 2e69 273e
00000250: c82c 41be ddf0 edbd d9a2 c93c 8d24 cdbd
00000260: f22a 0cbe 0319 09be fb9d 5e3e a4d5 07be
00000270: 0254 a03d 75bf 153e 1591 103e e5fe 053d
00000280: 5bf5 023d ce0b 8a3c bed5 533e 4d47 6d3e
00000290: 0aad 44bd b651 d0bd b0b7 54be a337 63be
000002a0: 55be c1bd d83f 2abe 54e6 59be af21 653e
000002b0: 894f 2b3c 1b23 3abe ff39 e23d efb6 093e
000002c0: 50ce 1c3e 6aac b03d 374f 933d 511d d4bd
000002d0: e408 243e 89da 2ebe 93b0 093e 6448 2e39
000002e0: ffc5 b0bc 1a70 e3bd f83a 1cbe c0b9 583e
000002f0: a60a 3dbe d5ce e53c c94d 9d3d ee5d 22bd
00000300: 5aea 59be b38a 2f3e 279f 533e 3553 40be
00000310: 10d7 5b3e 2ccb 643e 587a 66be 502c 8bbd
00000320: e7d6 49be 2c28 8d3d f939 02be a28c 1d3d
00000330: 3780 7a3e 9cdc 46bd dad9 1cbe 4546 3b3e
00000340: 11d6 44be 60a6 2bbe 38eb c03b fd5f 53be
00000350: c9e1 433e f3af 843e be56 62be 4609 413e
00000360: e743 58be ab5b 323c 754d 4fbe 036f 843e
00000370: 49d8 683e ecf5 e4bd 64f6 553e 7656 613e
00000380: 279a 303e db39 193e 8590 ccbc 03a8 373e
00000390: f790 a83d 9cbc ec3c c318 5b3e 1940 c3bd
000003a0: f02b 63be 4151 313e b5bc 77be 0677 f03d
000003b0: 104d a43d 6551 bc3c b049 473e 0e72 dbbd
000003c0: c0be 88bc 4f6c 483e 17fb 6f3c d75a c7bd
000003d0: fa08 bfbd f649 b1bd 74ec 85bc 6f08 083e
000003e0: 00bf 11be 4870 813e 94dc 953d 60ac a63d
000003f0: 414f 3dbe 7581 67bd fdd8 0fbe e8dd 293e

embedding/dense_embeds_var:0 f4 [1, 16]
0.42882028 0.16742015 0.56883585 0.4549217 0.29984912 -0.4341094 0.11255703 -0.44984314
0.39814895 -0.5610642 -0.35143152 -0.59395766 0.23945008 -0.001315988 0.066763856 0.25426036
00000000: 558e db3e 3070 2b3e 3a9f 113f 7feb e83e
00000010: d385 993e 9643 debe 4d84 e63d d751 e6be
00000020: 2eda cb3e e7a1 0fbf d5ee b3be 9c0d 18bf
00000030: 6732 753e 3b7d acba 7dbb 883d 6a2e 823e

dense/kernel:0 f4 [24, 1]
0.17653024 -0.48199838 -0.10645014 -0.2337612 0.2516727 -0.4844685 -0.22583063 0.34660295
0.25464305 -0.14148709 -0.35149843 0.09049114 0.3844309 -0.090635225 0.33976394 -0.45285687
0.12179301 0.2034137 -0.12052513 0.16173053 -0.17252928 -0.44972965 -0.4199087 -0.13708618
00000000: 58c4 343e 7ec8 f6be 8802 dabd 195f 6fbe
00000010: 3edb 803e 410c f8be 2540 67be f175 b13e
00000020: 9360 823e fee1 10be 9af7 b3be 6b53 b93d
00000030: 20d4 c43e f69e b9bd 8af5 ad3e dbdc e7be
00000040: 9d6e f93d ae4b 503e e1d5 f6bd b09c 253e
00000050: 84ab 30be f742 e6be 46fe d6be 5260 0cbe

mlp/mlp_layer1/kernel:0 f4 [384, 64]
0.0683707 -0.011295036 0.039905354 -0.07561585 -0.0988855 -0.10343427 -0.028694615 0.013067019
0.059859905 -0.09114324 -0.022042783 0.08229956 -0.034142688 0.0841528 -0.018532746 -0.092775315
-0.063896105 0.09168823 -0.01817061 -0.08300798 0.09070729 -0.036002968 0.04873011 -0.06620751
-0.13004078 -0.011100227 0.10461712 0.058567613 0.11266195 -0.07758115 -0.036559463 0.0876694
0.04826402 -0.056975003 0.11489248 0.009542629 0.081337854 0.10756675 0.006734282 0.008405916
-0.09827569 -0.015992582 0.03571649 -0.10583728 -0.061313864 0.1260401 0.03229104 -0.06496003
0.050084513 -0.0013484351 -0.06395359 0.017441243 0.07287574 0.09292649 0.01606214 0.035024464
-0.007959232 0.03046938 0.05210889 -0.070615046 -0.017829616 -0.059888124 0.030971207 -0.050685044
-0.029274318 -0.012345773 0.035250545 -0.044468507 -0.018925399 0.043367833 -0.07614492 -0.094941095
-0.09468119 0.0036786497 0.10904773 0.05128658 0.035278544 -0.0012162741 0.045029223 -0.10405235
-0.09775281 0.04030682 0.08838704 -0.052518606 0.0618645 -0.03352861 0.00014281603 0.044383302
-0.08061451 0.06351378 0.10047382 0.048060104 0.12017428 0.10967262 -0.044065922 -0.014779963
-0.08457021 -0.03430952 0.04290828 -0.0055633485 -0.012217857 0.10471857 0.041166604 -0.10679176
0.09192376 -0.040261313 -0.054945394 0.04981485 0.07837454 0.022325829 0.035322428 -0.009660669
0.07675365 0.063995376 -0.1109574 -0.06407223 0.059607103 0.1151747 -0.02686894 -0.113343075
0.071095824 0.09424277 -0.09866742 0.07288242 -0.09698686 -0.002325058 -0.11792198 0.011407284
0.11273765 -0.04470037 -0.07124825 0.06822744 0.10564168 -0.10934605 0.104777545 0.08074853
-0.09464641 -0.06026558 -0.078724645 0.030967012 -0.040518746 0.10812373 -0.011525892 0.025559306
-0.0884268 -0.10735787 0.04570122 -0.10076989 0.028645568 -0.092023216 -0.052765597 0.07748082
0.0010001878 -0.045896403 0.017985651 0.08539845 -0.06560003 0.11067274 -0.060322415 -0.050818272
0.009148701 0.018506233 -0.09838521 -0.041052453 0.05132954 0.062683605 0.02384846 0.03988938
-0.025608115 0.056213453 -0.049833007 0.09739889 -0.0002734714 -0.06494923 -0.0075771213 -0.024074659
-0.0571429 -0.057922397 -0.11057674 -0.04232646 0.10064967 0.093890615 -0.030994706 -0.09650012
0.059797987 -0.008729497 -0.012794185 -0.06060352 0.08805276 0.08609821 -0.0067763 -0.1161537
0.026231937 -0.07412262 -0.034210593 0.006223507 -0.02956687 0.03727281 0.07291469 0.062945664
0.05165381 0.106258795 0.007881419 -0.09771092 -0.05164285 0.030634113 0.006359473 -0.05902136
-0.08250335 -0.03125588 0.059735432 -0.0080284625 -0.022861252 -0.077112265 -0.09783975 0.11090875
-0.052155085 -0.11119352 -0.020571416 0.07476553 -0.06877111 0.051346377 -0.018139899 -0.048114598
0.102866665 0.088907406 0.09623797 -0.08056893 -0.063366845 -0.10935941 -0.086977 -0.07712655
-0.088455826 -0.10156624 -0.054966778 0.0447668 -0.055769175 -0.018038094 0.07467523 0.05262983
0.031634662 0.027634365 -0.051723387 0.02135082 -0.026153877 0.042190515 -0.039826833 -0.036390796
-0.00095146894 0.109961376 -0.015492256 -0.0041747955 0.07066593 0.09099254 0.01532266 0.008039454
00000000: f005 8c3d d10e 39bc cc73 233d 7cdc 9abd
00000010: 7b84 cabd 59d5 d3bd f810 ebbc 0d17 563c
00000020: a92f 753d 4fa9 babd 1193 b4bc ac8c a83d
00000030: 34d9 0bbd 4e58 ac3d fcd1 97bc fc00 bebd
00000040: f6db 82bd 0ac7 bb3d 88da 94bc 1600 aabd
00000050: bec4 b93d d977 13bd 3999 473d ce97 87bd
00000060: 6929 05be badd 35bc 8041 d63d 98e4 6f3d
00000070: 4fbb e63d dee2 9ebd 60bf 15bd 048c b33d
00000080: 7eb0 453d 9f5e 69bd c04c eb3d b058 1c3c
00000090: 7694 a63d f54b dc3d 40ab dc3b f8b8 093c
000000a0: c444 c9bd e002 83bc 744b 123d 37c1 d8bd
000000b0: 3f24 7bbd a810 013e 9c43 043d c409 85bd
000000c0: 6b25 4d3d f9bd b0ba 1afa 82bd f0e0 8e3c
000000d0: e03f 953d 3e50 be3d c094 833c d075 0f3d
000000e0: 7067 02bc ec9a f93c 2270 553d 9f9e 90bd
000000f0: 6a0f 92bc 404d 75bd 54b7 fd3c 1f9b 4fbd
00000100: b2d0 efbc ed45 4abc e062 103d 9c24 36bd
00000110: 7009 9bbc 78a2 313d def1 9bbd 7a70 c2bd
00000120: 36e8 c1bd 8015 713b 6b54 df3d e011 523d
00000130: 3c80 103d 636b 9fba 9070 383d 6619 d5bd
00000140: a032 c8bd c418 253d 4404 b53d c01d 57bd
00000150: a165 7d3d 4c55 09bd e3c0 1539 44cb 353d
00000160: 3819 a5bd 8313 823d 38c5 cd3d acda 443d
00000170: ef1d f63d 0a9c e03d 787e 34bd a827 72bc
00000180: 2533 adbd 2488 0cbd 98c0 2f3d c04c b6bb
00000190: 682d 48bc b176 d63d 509e 283d a3b5 dabd
000001a0: 8642 bc3d 0ce9 24bd 6c0e 61bd a80a 4c3d
000001b0: d582 a03d a8e4 b63c 40ae 103d c847 1ebc
000001c0: 0531 9d3d 0210 833d a23d e3bd 4d38 83bd
000001d0: 9426 743d b7e0 eb3d 401c dcbc 6a20 e8bd
000001e0: b09a 913d 5a02 c13d 2512 cabd 6143 953d
000001f0: 0ca1 c6bd 0060 18bb 1481 f1bd 9ee5 3a3c
00000200: ffe2 e63d bc17 37bd 9aea 91bd d4ba 8b3d
00000210: aa5a d83d d2f0 dfbd 9c95 d63d 7c5f a53d
00000220: fad5 c1bd 0ad9 76bd 633a a1bd 88ae fd3c
00000230: fcf6 25bd f96f dd3d 18d7 3cbc c061 d13c
00000240: 1c19 b5bd 71de dbbd 3431 3b3d 7260 cebd
00000250: 1caa ea3c ab76 bcbd bd20 58bd 44ae 9e3d
00000260: bc18 833a defd 3bbd a556 933c 62e5 ae3d
00000270: 4f59 86bd 64a8 e23d a314 77bd d226 50bd
00000280: 6fe4 153c 629a 973c 2f7e c9bd 9e26 28bd
00000290: ec3e 523d 4360 803d d85d c33c 0c63 233d
000002a0: 1cc8 d1bc 1440 663d b21d 4cbd 1279 c73d
000002b0: b660 8fb9 1a04 85bd 8049 f8bb 3838 c5bc
000002c0: ac0e 6abd 0940 6dbd 0f76 e2bd 835e 2dbd
000002d0: 6a21 ce3d b949 c03d 9ce8 fdbc dba1 c5bd
000002e0: bcee 743d 2a06 0fbc b49e 51bc 663b 78bd
000002f0: 0155 b43d 4254 b03d b90b debb fee1 edbd
00000300: 5ce4 d63c 9acd 97bd 6820 0cbd 90ee cb3b
00000310: 3836 f2bc 60ab 183d 4c54 953d a8e9 803d
00000320: f292 533d 369e d93d 1121 013c aa1c c8bd
00000330: 7487 53bd 64f4 fa3c 2063 d03b 62c0 71bd
00000340: 84f7 a8bd 2a06 00bd 24ad 743d d089 03bc
00000350: 8547 bbbc 09ed 9dbd 3560 c8bd 2024 e33d
00000360: 92a0 55bd 6eb9 e3bd 6385 a8bc ac1e 993d
00000370: ded7 8cbd 9450 523d 209a 94bc d013 45bd
00000380: c2ab d23d 1615 b63d 6a18 c53d 5301 a5bd
00000390: 7ac6 81bd d4f7 dfbd ff20 b2bd 86f4 9dbd
000003a0: 5428 b5bd f601 d0bd d824 61bd 645d 373d
000003b0: 386e 64bd a0c4 93bc 54ef 983d 6092 573d
000003c0: 5993 013d 7761 e23c e7db 53bd eae7 ae3c
000003d0: a840 d6bc f6cf 2c3d 7621 23bd 840e 15bd
000003e0: 006c 79ba 6e33 e13d 3bd3 7dbc b9cc 88bb
000003f0: 4db9 903d 4c5a ba3d e50b 7b3c eab7 033c

mlp/mlp_layer1/bias:0 f4 [64]
-0.0007211064 -0.0009223737 0.0 0.0 0.0 0.0 0.0 -0.023566293
-0.007039658 0.0 -0.008954166 0.0 0.0 -0.007218931 0.0 0.0
0.0 -0.0046141124 0.0 0.0 -0.0055635334 -0.002398903 -0.0035665743 0.0
0.016658157 -0.00818873 -0.00497699 0.0 -0.0041586547 0.0 0.0 0.0
0.0014009007 0.00087850715 0.0 0.0 0.0 -0.00023607367 0.0 0.0
0.0 0.0 0.0 0.0 -0.018328056 -0.007545429 0.0 0.0
-0.011122915 -0.004333927 0.0015129872 -0.009594312 0.0 -0.00012340622 0.0 0.0
0.0 -0.0043208436 -0.007095371 -0.009618372 0.0028809265 0.0 0.006491028 0.0016962026
00000000: a208 3dba 74cb 71ba 0000 0000 0000 0000
00000010: 0000 0000 0000 0000 0000 0000 190e c1bc
00000020: eeac e6bb 0000 0000 7fb4 12bc 0000 0000
00000030: 0000 0000 c88c ecbb 0000 0000 0000 0000
00000040: 0000 0000 fb31 97bb 0000 0000 0000 0000
00000050: 4d4e b6bb ea36 1dbb 30bd 69bb 0000 0000
00000060: b076 883c 062a 06bc 0516 a3bb 0000 0000
00000070: 5345 88bb 0000 0000 0000 0000 0000 0000
00000080: 6d9e b73a 9e4b 663a 0000 0000 0000 0000
00000090: 0000 0000 8b8a 77b9 0000 0000 0000 0000
000000a0: 0000 0000 0000 0000 0000 0000 0000 0000
000000b0: b824 96bc a53f f7bb 0000 0000 0000 0000
000000c0: e33c 36bc 9d03 8ebb 6d4f c63a 7631 1dbc
000000d0: 0000 0000 9b66 01b9 0000 0000 0000 0000
000000e0: 0000 0000 dd95 8dbb 4980 e8bb 6096 1dbc
000000f0: edcd 3c3b 0000 0000 b0b2 d43b 1d53 de3a

mlp/mlp_layer2/kernel:0 f4 [64, 64]
-0.002647172 0.19795808 0.19972755 -0.1345558 0.06092494 -0.105481066 -0.19951153 -0.03402981
0.02626056 -0.18697064 -0.057162713 0.13879226 -0.13226257 -0.20961556 -0.068403244 -0.09038343
-0.020879835 -0.07510558 0.050517123 -0.03883564 0.16865234 0.20941664 0.14910455 -0.12862206
-0.15431675 -0.16726159 -0.06779188 0.07021602 -0.20387863 0.026390357 -0.037087012 0.20311962
-0.16138735 0.14449796 -0.07763508 -0.106291935 -0.03526105 -0.017639503 0.0077029406 0.053838465
0.0027572012 0.0065796087 -0.19107234 -0.1610686 -0.04472523 0.06478592 -0.07376324 -0.21441703
0.11253318 0.11774198 0.14191043 0.12343312 0.20860325 0.037369017 -0.042918473 0.000883469
0.024588052 0.16758226 -0.17566487 -0.21054634 0.20230244 0.06469102 -0.14358248 -0.045381323
-0.08055898 -0.08297994 -0.0544028 0.20582715 -0.09602997 -0.016552752 0.012434598 -0.15669535
-0.05255897 -0.21376956 0.2093436 0.010330242 0.132951 0.014122521 -0.02618976 -0.16342543
0.12332795 0.17129043 0.08089204 -0.028350038 0.07647857 -0.17311816 0.18163891 0.16307968
-0.018431893 0.0960152 0.03558626 -0.19601096 -0.054016963 0.031155776 -0.10245303 0.10681727
0.13287035 0.024068847 -0.0005847727 -0.15969583 0.056936607 -0.0034385987 0.055751517 0.17924756
0.087233126 0.055224318 0.029569222 0.13729817 -0.03643004 -0.20195936 -0.12392616 0.016844371
-0.07548026 -0.12332401 0.18529104 0.10487524 -0.036149487 0.14635134 0.20325494 -0.13212666
0.1458425 0.15155563 -0.11054665 0.07970583 -0.21690385 -0.18954913 0.07771458 -0.12912665
-0.1915804 -0.101106144 -0.13760474 0.0001257956 -0.18500087 -0.05400218 -0.015288711 -0.039687783
-0.07739107 0.079766795 -0.10625691 0.17472808 0.19884945 -0.108935066 -0.20568816 -0.19198117
0.05205445 -0.020384237 0.026741654 0.051329657 -0.21518758 0.1320891 -0.037648216 0.072406486
0.16613795 0.09150086 0.13401325 -0.121805005 0.10042755 -0.11484329 -0.18291649 -0.021696448
0.04478894 -0.008042932 0.00071802735 -0.035541117 -0.017952934 0.053549215 0.10579239 0.11232467
0.054615065 -0.06413099 -0.090179816 0.096624 0.18751104 0.019874394 -0.097301915 0.10340269
0.09400572 0.024398863 -0.14616361 -0.19068073 0.0641468 0.1561371 0.012282878 0.0872433
-0.080656186 0.030722722 -0.21311827 0.17720912 -0.025882453 0.21318893 0.05079864 -0.10148875
0.13544314 -0.106260054 -0.08420026 -0.17010921 0.21231194 -0.11293668 -0.18391475 0.19773315
-0.20684046 -0.20672034 -0.12814894 0.017275736 0.1888376 0.17561986 0.13897507 -0.07739784
0.11556782 0.07916878 -0.09743282 -0.13499224 0.08209507 -0.17116906 0.13314278 -0.056186244
0.01966989 -0.05515097 -0.19140753 0.020128474 -0.1831705 0.1189089 -0.15719637 -0.07234618
-0.18707678 0.19048528 -0.18629692 -0.06653418 0.15283687 0.15133537 0.14899279 -0.12199728
-0.0012726635 -0.12379342 0.026514992 0.060413346 0.10642855 -0.19793952 -0.0040700585 0.12649764
-0.11501998 -0.0070407987 -0.10100177 0.10053383 -0.008485407 -0.039987594 0.0016406178 -0.13747832
0.1640821 0.029688746 0.012471542 -0.18734169 0.041371033 -0.13485634 0.083382204 -0.035569355
00000000: 2d7c 2dbb 86b5 4a3e 6185 4c3e ffc8 09be
00000010: 6e8c 793d 7506 d8bd c04c 4cbe d862 0bbd
00000020: 6320 d73c 3b75 3fbe 7323 6abd 8f1f 0e3e
00000030: d76f 07be 76a5 56be 0017 8cbd f31a b9bd
00000040: 300c abbc f4d0 99bd 0beb 4e3d 1f12 1fbd
00000050: 33b3 2c3e 5171 563e ddae 183e 80b5 03be
00000060: 3605 1ebe 9f46 2bbe 78d6 8abd 6bcd 8f3d
00000070: 8fc5 50be 9730 d83c 8de8 17bd 97fe 4f3e
00000080: ba42 25be 46f7 133e 24ff 9ebd 96af d9bd
00000090: e46d 10bd b880 90bc f368 fc3b b985 5c3d
000000a0: 29b2 343b c299 d73b 78a8 43be 2bef 24be
000000b0: ce31 37bd 7bae 843d 2e11 97bd 2390 5bbe
000000c0: cc77 e63d b522 f13d f850 113e 81ca fc3d
000000d0: 179c 553e 4110 193d 48cb 2fbd 9a98 673a
000000e0: e26c c93c af9a 2b3e 7ee1 33be 7699 57be
000000f0: 5f28 4f3e ba7c 843d 4907 13be c4e1 39bd
00000100: 1bfc a4bd 63f1 a9bd 78d5 5ebd 5ac4 523e
00000110: 5cab c4bd a399 87bc 7cba 4b3c bf74 20be
00000120: 1348 57bd 68e6 5abe 2b5e 563e 2d40 293c
00000130: 4f24 083e 2562 673c e88b d6bc ff58 27be
00000140: 5d93 fc3d c266 2f3e baaa a53d 573e e8bc
00000150: cca0 9c3d e345 31be 8dff 393e 5cfe 263e
00000160: 7bfe 96bc 9ea3 c43d e6c2 113d 19b7 48be
00000170: e440 5dbd 663a ff3c e5d2 d1bd 03c3 da3d
00000180: 2a0f 083e 082c c53c 6e4b 19ba 4e87 23be
00000190: 5c36 693d 1d5a 61bb b45b 643d ac8c 373e
000001a0: 48a7 b23d e532 623d 273b f23c e497 0c3e
000001b0: aa37 15bd 6fce 4ebe 00cd fdbd 35fd 893c
000001c0: 6595 9abd 4c91 fcbd efbc 3d3e d4c8 d63d
000001d0: 7c11 14bd 20dd 153e 1022 503e 364c 07be
000001e0: bc57 153e 6631 1b3e 4866 e2bd cf3c a33d
000001f0: 0b1c 5ebe 2b19 42be d228 9f3d c739 04be
00000200: a72d 44be bd10 cfbd 42e8 0cbe 00e8 0339
00000210: de70 3dbe 6431 5dbd 807d 7abc a88f 22bd
00000220: 367f 9ebd c65c a33d 399d d9bd ebeb 323e
00000230: 319f 4b3e 5919 dfbd eb9f 52be b696 44be
00000240: 0c37 553d d8fc a6bc 5011 db3c 0c3f 523d
00000250: 225a 5cbe 5d42 073e 0435 1abd da49 943d
00000260: 1120 2a3e ce64 bb3d c53a 093e e774 f9bd
00000270: f6ac cd3d f532 ebbd 764e 3bbe c0bc b1bc
00000280: 9c74 373d 80c6 03bc 003a 3c3a 9093 11bd
00000290: 0812 93bc 6c56 5b3d aea9 d83d 7a0a e63d
000002a0: 0cb4 5f3d 1c57 83bd 32b0 b8bd cee2 c53d
000002b0: e502 403e a0cf a23c 3a46 c7bd cac4 d33d
000002c0: 1286 c03d 20e0 c73c eaab 15be cf41 43be
000002d0: 665f 833d 67e2 1f3e 203e 493c 9eac b23d
000002e0: 122f a5bd 38ae fb3c ad3b 5abe 4f76 353e
000002f0: 7007 d4bc 334e 5a3e 3c12 503d 55d9 cfbd
00000300: 9bb1 0a3e df9e d9bd 3071 acbd 1c31 2ebe
00000310: 4d68 593e 594b e7bd 2654 3cbe 8f7a 4a3e
00000320: fccd 53be 7fae 53be 7a39 03be d885 8d3c
00000330: a55e 413e b1d5 333e 7b4f 0e3e c282 9ebd
00000340: d2ae ec3d 3e23 a23d dc8a c7bd 683b 0abe
00000350: 7621 a83d f146 2fbe 9556 083e 8c23 66bd
00000360: c022 a13c fce5 61bd 5600 44be 78e4 a43c
00000370: 0c91 3bbe 8286 f33d 16f8 20be 3c2a 94bd
00000380: 0e91 3fbe 930e 433e 9fc4 3ebe 1243 88bd
00000390: 4581 1c3e a9f7 1a3e 9191 183e b6d9 f9bd
000003a0: 80cf a6ba 6887 fdbd f835 d93c fc73 773d
000003b0: 36f7 d93d a8b0 4abe 205e 85bb 9988 013e
000003c0: 988f ebbd 80b6 e6bb 04da cebd aee4 cd3d
000003d0: 6006 0bbc 08ca 23bd 000a d73a 1ec7 0cbe
000003e0: 2305 283e d035 f33c 7055 4c3c 80d6 3fbe
000003f0: ac74 293d c817 0abe 4ac4 aa3d 2cb1 11bd

mlp/mlp_layer2/bias:0 f4 [64]
-0.0050404384 0.01675667 -0.008754771 -0.003125648 -0.0039521297 0.00080091256 -0.007650029 -2.9921915e-05
-0.022198178 -0.00091027026 -0.002622394 -0.003915046 -0.0026577811 0.0018775603 -0.00024065461 -0.007064845
-0.0020662106 -0.0030179147 -0.00048550882 -0.0027311686 -0.005714216 -0.0055546244 -0.0055738217 -0.0107463775
0.03364106 -0.00082580687 -0.005122575 -0.0041836128 -0.012119944 0.012107746 0.0007549551 -0.004421092
-0.0027750891 -0.0069105327 -0.00037987926 -0.00087538734 2.1103351e-05 -0.0021802003 -0.0028803407 -0.0033400478
-0.012129501 -0.0020323675 -0.008754229 -0.00794873 -0.0054299086 -0.00014452568 0.0062162746 0.011999972
-0.00042980872 -0.0064665233 -0.0038678036 -0.0042213057 -3.717183e-06 -0.0060308767 -3.1678584e-05 -0.004038853
-0.0016785901 -0.0077611003 -0.0005523768 0.0016779084 -0.000810017 -0.005726753 -0.0031987366 0.0020715909
00000000: 432a a5bb 4945 893c 2c70 0fbc acd7 4cbb
00000010: de80 81bb 55f4 513a 18ad fabb d300 fbb7
00000020: f4d8 b5bc 349f 6eba 78dc 2bbb c949 80bb
00000030: 2b2e 2ebb 7818 f63a 3b58 7cb9 3780 e7bb
00000040: 4369 07bb 35c8 45bb e48b feb9 68fd 32bb
00000050: 513e bbbb 9103 b6bb 9ba4 b6bb 9311 30bc
00000060: 35cb 093d f67a 58ba 46db a7bb b016 89bb
00000070: bb92 46bc 915f 463c 2ee8 453a cfde 90bb
00000080: 45de 35bb c071 e2bb 882a c7b9 407a 65ba
00000090: 1a07 b137 b1e1 0ebb 19c4 3cbb b4e4 5abb
000000a0: d1ba 46bc 7831 05bb e66d 0fbc 643b 02bc
000000b0: 60ed b1bb d18b 17b9 e4b1 cb3b 889b 443c
000000c0: f357 e1b9 21e5 d3bb fa7a 7dbb e152 8abb
000000d0: b874 79b6 a99e c5bb 9fde 04b8 5b58 84bb
000000e0: 2304 dcba d450 febb 61cd 10ba 43ed db3a
000000f0: 5257 54ba 7ca7 bbbb e5a1 51bb 87c3 073b
